output/hate_speech_topic_model/topic_embeddings.safetensors (safetensors, 10840 bytes, 1 tensors)

topic_embeddings f4 [7, 384]
-0.020187657 0.030450132 -0.011001273 -0.023447368 -0.014221718 0.007710157 0.072945245 0.0006143728
0.008839978 0.00947747 0.025594344 -0.037763752 0.015516399 -0.010183354 -0.0318612 -0.009249211
-0.013969323 -0.005037537 -0.030923417 -0.039729957 -0.02245249 0.012559732 0.022300089 0.010235613
-0.04117176 -0.00250757 -0.019581165 0.0051273624 0.012139662 -0.015869832 0.006665339 0.023819711
0.007409999 -0.001236207 -0.020724064 0.020406397 0.014016243 -0.006624574 -0.0049826326 -0.0010293375
0.0066722864 -0.050603423 -0.009274358 -0.014602507 0.016671147 0.0031451087 -0.013432198 0.01567338
0.018986138 -0.006917847 -0.01986548 -0.023902517 0.017697062 -0.021931177 0.006308991 -0.016695315
-0.009364752 0.0062415916 0.020453012 0.006576211 -0.0064737764 0.015014136 -0.019700555 -0.012945487
0.017837709 -0.01693388 0.0029784585 -0.0037526004 -0.011868413 0.034213003 0.01220848 -0.014743159
-0.00055763044 0.013682115 -0.03245509 -0.00034555676 0.011196089 -0.020773308 0.0073956875 -0.013769047
0.003796793 -0.009414135 -0.0042163483 -0.0030870817 0.0023218226 -0.030821783 -0.011214119 -0.0057760268
0.004260383 0.008364553 0.0070841447 0.010703484 0.025881056 0.006931035 -0.008472107 -0.007801613
-0.009012684 -0.00090881437 -0.07460559 0.07472799 0.006432128 0.010760833 0.017724136 0.03305033
-0.0112000285 -0.016205054 -0.004661611 0.017789485 -0.013674629 -0.01448181 -0.043157928 -0.02066548
-0.012626169 -0.020926328 0.027133716 -0.003873018 0.002840414 -0.022037148 -0.016296068 -0.028175332
0.0037620263 0.0108834235 -0.026751319 0.018817648 -0.0077220085 -0.06221159 0.0015876888 2.6312635e-33
-0.0025264523 0.0050381473 0.0020709622 0.0036934505 0.004084329 0.012617591 -0.038716946 0.005877435
-0.0070368103 -0.0067362594 0.012024251 -0.01898903 -0.024046272 -0.0026614314 0.0044133137 0.003981968
-0.001660487 0.008051773 -0.004381439 -0.017248666 -0.0140897725 0.029635949 0.009334583 0.008700044
0.014245146 0.004972955 0.021149067 -0.035626892 0.0031246978 0.028003223 0.0175206 0.009899152
-0.00818738 -0.021122513 -0.01943288 -0.011246144 -0.0007040283 -0.012900358 -0.031016227 -0.012155622
0.018127955 0.00388231 -0.014294783 -0.010355921 0.022936374 0.041073702 0.010707056 0.004298545
0.0079564005 0.00573496 0.0025922835 0.020011904 -0.022716092 -0.0103990985 0.0033058198 -0.0016406717
-0.0071959305 0.028086755 -0.0057549686 0.002936482 0.017491935 -0.003513895 -0.012783823 -0.009457057
-0.022605423 -0.046912447 0.0024708647 -0.005532529 0.0018422952 0.0029219626 -0.023165178 0.008590235
0.029465865 0.022830667 -0.037348893 -0.005374945 0.0027178763 -0.0014334929 0.0059905117 -0.009468981
-0.0033474008 0.007190647 0.006825817 -0.025314495 0.012065501 0.0064331293 0.017218892 -0.034491483
0.01961014 0.0043137143 -0.050425112 0.0031022532 0.023603586 -0.017106218 -0.032442354 -3.7898188e-33
-0.0036909163 0.00862436 -0.02893579 0.043357175 0.021089373 0.0020060148 0.009710219 0.05219435
0.020385168 0.033977497 0.011414812 -0.040845953 0.046621896 -0.0006584977 0.045596384 -0.015845705
0.053428523 0.018697584 -0.034135673 0.011469456 -0.019014789 0.013163304 -0.011567231 0.03201667
-0.022001633 0.011573201 0.029551972 0.0037728706 -0.03423975 -0.0009965621 0.012781151 -0.015941022
00000000: 9660 a5bc 8e72 f93c af3e 34bc b214 c0bc
00000010: 3502 69bc 7ca5 fc3b 5164 953d dc0d 213a
00000020: 8ed5 103c 6447 1b3c 3bab d13c 2aae 1abd
00000030: 7f38 7e3c 15d8 26bc e480 02bd 018a 17bc
00000040: 96df 64bc ec11 a5bb 1b53 fdbc e1bb 22bd
00000050: 49ee b7bc 56c7 4d3c adae b63c 46b3 273c
00000060: b8a3 28bd 0b56 24bb ae68 a0bc 6f03 a83b
00000070: 6fe5 463c 7301 82bc eb68 da3b 8e21 c33c
00000080: 94cf f23b 3908 a2ba 83c5 a9bc 512b a73c
00000090: 62a4 653c f412 d9bb 5a45 a3bb d6ea 86ba
000000a0: 32a3 da3b 8945 4fbd 7af3 17bc 5b3f 6fbc
000000b0: ee91 883c 2b1e 4e3b b912 5cbc 7665 803c
000000c0: d188 9b3c 1baf e2bb eebc a2bc 36cf c3bc
000000d0: 6ef9 903c 03a9 b3bc a7bb ce3b 9dc4 88bc
000000e0: 9e6e 19bc 4486 cc3b 138d a73c 427d d73b
000000f0: f921 d4bb dafd 753c 0f63 a1bc 4f19 54bc
00000100: 6320 923c ecb8 8abc 3e32 433b 30ee 75bb
00000110: bb73 42bc ef22 0c3d 1406 483c 4a8d 71bc
00000120: f22d 12ba f32a 603c a1ef 04bd d82b b5b9
00000130: cd6f 373c c92c aabc 8657 f23b 9297 61bc
00000140: 9ed3 783b be3d 1abc 4b29 8abb a350 4abb
00000150: b829 183b f77d fcbc 6dbb 37bc d344 bdbb
00000160: af9a 8b3b 7a0b 093c 1d22 e83b aa5d 2f3c
00000170: 8204 d43c bc1d e33b 98ce 0abc aca4 ffbb
00000180: f0a9 13bc 803d 6eba d1ca 98bd fd0a 993d
00000190: 9ac4 d23b 344e 303c 3532 913c c85f 073d
000001a0: 5380 37bc 76c0 84bc 6dc0 98bb 41bb 913c
000001b0: 8d0b 60bc 1d45 6dbc 5ec6 30bd a74a a9bc
000001c0: fedd 4ebc b16d abbc 8747 de3c 76d2 7dbb
000001d0: 3d26 3a3b 4087 b4bc 557f 85bc f4cf e6bc
000001e0: 548c 763b 6350 323c 9525 dbbc 7827 9a3c
000001f0: e708 fdbb 95d1 7ebd ff19 d03a c998 5a09
00000200: d692 25bb 0b17 a53b fbb8 073b d10d 723b
00000210: d6d5 853b 03ba 4e3c a995 1ebd 8097 c03b
00000220: 0b95 e6bb d7bb dcbb 5d01 453c e28e 9bbc
00000230: b0fc c4bc 696b 2ebb 8f9d 903b 2b7b 823b
00000240: b3a4 d9ba 95eb 033c 2d92 8fbb 134d 8dbc
00000250: cad8 66bc 17c7 f23c 14f0 183c a18a 0e3c
00000260: 7964 693c 2cf4 a23b cf40 ad3c 81ed 11bd
00000270: bbc7 4c3b 0467 e53c 5d87 8f3c 0e30 223c
00000280: 5c24 06bc 1f09 adbc b431 9fbc bf41 38bc
00000290: 8a8e 38ba 065c 53bc be15 febc 6028 47bc
000002a0: 1481 943c 5a6e 7e3b aa34 6abc e2ab 29bc
000002b0: 10e5 bb3c e63c 283d a66c 2f3c cfda 8c3b
000002c0: 905b 023c 55ec bb3b 4de3 293b 01f0 a33c
000002d0: 1917 babc fb60 2abc 74a6 583b cf0b d7ba
000002e0: d7cb ebbb 3216 e63c 2d94 bcbb fe71 403b
000002f0: 3f4b 8f3c 6049 66bb 3d73 51bc c6f1 1abc
00000300: 022f b9bc 4427 40bd 3bee 213b 384a b5bb
00000310: 2b79 f13a 667e 3f3b e6c4 bdbc 0fbe 0c3c
00000320: 6662 f13c 6107 bb3c 27fb 18bd 4e20 b0bb
00000330: 661e 323b 0ae4 bbba 0e4c c43b c923 1bbc
00000340: 1160 5bbb 859f eb3b 1aab df3b 5860 cfbc
00000350: 61ae 453c 00cd d23b a20e 8d3c f146 0dbd
00000360: 72a5 a03c 0f5a 8d3b 908a 4ebd 2c4f 4b3b
00000370: 4f5c c13c 5722 8cbc 46e2 04bd 446c 9d89
00000380: 4de3 71bb 304d 0d3c c00a edbc 4b97 313d
00000390: 9fc3 ac3c 5877 033b 9c17 1f3c bec9 553d
000003a0: ccfe a63c fd2b 0b3d 3105 3b3c 164e 27bd
000003b0: 9af6 3e3d 089f 2cba 46c3 3a3d dace 81bc
000003c0: ded7 5a3d ad2b 993c d9d1 0bbd 63ea 3b3c
000003d0: e7c4 9bbc e6aa 573c 7c84 3dbc e923 033d
000003e0: c53c b4bc 869d 3d3c fa16 f23c 4442 773b
000003f0: fb3e 0cbd 139f 82ba 0868 513c bf96 82bc
