output/model_2024-11-12/ctfidf.safetensors (safetensors, 139848 bytes, 4 tensors)

data f8 [11151]
0	0x3fb488bb78480798	0.08021136938626083
1	0x3fb2523d74e78066	0.0715673838053604
2	0x3faf7e14a06fa32b	0.06150879343460355
3	0x3fb227cbfabdaa46	0.07091975089648725
4	0x3faa29e27deb5cf6	0.05110080515958686
5	0x3fb1eddb92283efe	0.07003567045489587
6	0x3fadc2e5fb3dbf9b	0.05812758151921501
7	0x3fb51a687034f8ae	0.08243420352389094
8	0x3fb6e744ba809d74	0.08946637681275665
9	0x3fb40ab6a8435444	0.07828847511275777
10	0x3fb449a2eb7456a9	0.07924860237502664
11	0x3fa50e69ced33c61	0.04112558984490345
12	0x3fa312a51e90a68b	0.03725162504299558
13	0x3fb153428b603858	0.06767669584971381
14	0x3fb08416ab7787ee	0.06451551138118791
15	0x3fb1d2d90a3a17a6	0.0696235322921824
16	0x3fb6b9a3dd8643c1	0.08877014311134614
17	0x3fb3fa18adadc224	0.07803491821483327
18	0x3fad5d7f0c8c3975	0.05735394504710004
19	0x3fb02e6956fdeb84	0.06320818303895065
20	0x3fb3e666e4f10a50	0.0777344044627537
21	0x3fb5d40d43c5ffef	0.08526690392136492
22	0x3fb1ddae4a230324	0.06978883085231452
23	0x3fb1476884436b8b	0.06749585370145732
24	0x3fafd2acd22b4977	0.0621541983179154
25	0x3fb1b1b782d653be	0.06911799377696945
26	0x3fb2d8c67b09bc84	0.07362022880418989
27	0x3fb1015ea033d5f2	0.06642714892571869
28	0x3fb1e715af19c1e1	0.06993232273976659
29	0x3fb66f8a66a6bbd5	0.08763947492728559
30	0x3fb226b2c6b7bbfd	0.07090298987871786
31	0x3fb3b6309e1d4c29	0.07699874744621184
32	0x3fb0b1016c5858ba	0.06520089049476754
33	0x3fb67d7cd54d61ae	0.08785228927206987
34	0x3faf9040699302e9	0.061647427451594634
35	0x3f9c43bc8984c904	0.027602144139742726
36	0x3fb5edcb13ed9fc5	0.085659687390602
37	0x3fb19fc1b0482297	0.06884394220117894
38	0x3fb2ed3daa33649a	0.07393250851909486
39	0x3fb7b964a0471c9b	0.09267262375861877
40	0x3face11a30f673d9	0.05640489432992241
41	0x3fb2f9a2a286574f	0.07412163226976286
42	0x3fac690caafddda4	0.055488963959699406
43	0x3fb069eebcda1eab	0.06411640272755885
44	0x3fb3d5bd4c432c88	0.07748015510439832
45	0x3fb3097f931fd8c1	0.07436368314651799
46	0x3fb15159b74c12f4	0.06764755940464423
47	0x3fae7dde44eb82b6	0.05955404845531602
48	0x3fb52807f4c97d5e	0.08264207578894431
49	0x3faaf13f7064452e	0.05262182471245534
50	0x3fab69683b3ea120	0.05353856776429411
51	0x3fb7925049cb8cbd	0.09207631875647145
52	0x3fb42a6b318ff8b8	0.07877225837725887
53	0x3fb33d8765b342e0	0.07515760643878933
54	0x3fb254ebea1ffefe	0.07160829988424308
55	0x3fb963e730b1c11f	0.09918065012766818
56	0x3fa80128db25090a	0.046883846999223946
57	0x3fb27b446bfaf196	0.07219340931164306
58	0x3fb40165a4640972	0.0781463171333934
59	0x3fb34207d14ad78f	0.07522629604031138
60	0x3fb242c6d46362b7	0.07133143124827766
61	0x3fb087849e523ebe	0.06456784119859102
62	0x3fb4c0cdd47882bf	0.08106695592187928
63	0x3fb31cff9089bb5c	0.07466122893104682
64	0x3fb50e69ced33c61	0.0822511796898069
65	0x3fa76065b29806fe	0.04565732770062246
66	0x3fb55250b8761df8	0.08328728202297231
67	0x3fb8813ff7b45b1e	0.09572219655488509
68	0x3fb1308a912dcf83	0.06714693111808683
69	0x3fac3af855b0e2f9	0.05513740583450572
70	0x3fb23c3c20208a10	0.07123161110261145
71	0x3fad656a8e6e2928	0.05741436947490036
72	0x3fac97dc35067762	0.05584610125809665
73	0x3faba108fba8d313	0.05396297523512863
74	0x3fb5b44f94b695dd	0.08478257542318297
75	0x3fb0a57ef33d03af	0.06502526701389287
76	0x3fb5c4d5eaa59b1e	0.08503472307857549
77	0x3faff7544c1999da	0.062433847703505754
78	0x3fae53e25853e163	0.05923373535364609
79	0x3fad0e45b9e8deaa	0.056749514526413705
80	0x3fa49f92191d14d6	0.040279927793145084
81	0x3fae7f5010868df4	0.05956506921509322
82	0x3fa5434a13da1cd8	0.04152900211652771
83	0x3fb13785db8ce38b	0.06725346193424124
84	0x3fb40f38071262f7	0.07835722134258193
85	0x3fb70483778f054e	0.08991262120163876
86	0x3fb7a3b89d788da7	0.09234193653587984
87	0x3fb3c0ba50e227c2	0.07715954279606677
88	0x3fb4b7feb794de5b	0.08093254072161342
89	0x3fb0436457ce2e4e	0.06352831977545145
90	0x3fb08d51d75e0b31	0.06465636737815995
91	0x3fa8d201b9c050e0	0.04847722427817458
92	0x3fb2606062d2ad72	0.0717830888049116
93	0x3fb7e44849ef5035	0.093327062654965
94	0x3fb23a5237038901	0.0712024101553972
95	0x3fb4e89b8d7fa733	0.08167431072766078
96	0x3fb4222d4e6d2c93	0.07864649929722338
97	0x3fb4843db1207654	0.08014283728012944
98	0x3fb15c6d5a1630b4	0.06781657647497036
99	0x3fac97dc35067762	0.05584610125809665
100	0x3fb0c944472ed346	0.06557108629097028
101	0x3fb1facd91761150	0.07023320008562917
102	0x3fad3fc4bc643e89	0.05712714004232306
103	0x3fb716e280c1e776	0.09019294398777142
104	0x3fb47e7c05d27174	0.08005499975337732
105	0x3fb42cabfca54945	0.07880663793665572
106	0x3fb2fada5789c451	0.07414021145975026
107	0x3fb39054c5081c65	0.07642106829017477
108	0x3fb8fb5fc106008b	0.09758566343771428
109	0x3fb15f93cc8f5891	0.06786464447154318
110	0x3fb84a802162bb0d	0.09488678755836251
111	0x3fb82fac1d1faaeb	0.09447742186572909
112	0x3fb2d12e44761aa9	0.07350434466762103
113	0x3fad5d7f0c8c3975	0.05735394504710004
114	0x3faaebd271301697	0.05258042937934453
115	0x3faa02c37de61ca2	0.05080233489848608
116	0x3fa5da02d725c3d6	0.042678917658924995
117	0x3fb276e6094082a1	0.07212674833182088
118	0x3fb2fada5789c451	0.07414021145975026
119	0x3fadc285d8078b37	0.058124716397080105
120	0x3fb03d6184436cc0	0.06343659857832318
121	0x3faaa20a72a8ac42	0.05201752328533661
122	0x3fa18c0e0bcb2c21	0.03427165883984907
123	0x3fad765b047bc813	0.057543606087975395
124	0x3fa23c3c20208a10	0.035615805551305724
125	0x3fb226b2c6b7bbfd	0.07090298987871786
126	0x3fa9602880bc8d6e	0.04956175395480043
127	0x3fa1f17a3f14b1c9	0.03504545230893858
128	0x3fb77f1acfe910d1	0.0917832143396169
129	0x3fa7d23db82eaed9	0.046525887234876336
130	0x3fa9c9e18d10c20c	0.05036835524549951
131	0x3fb594231b162647	0.08429164325038939
132	0x3fa4d54030eb517f	0.040689474078734904
133	0x3fa64a916be9c48c	0.04353765909480342
134	0x3fb4b519a7497389	0.08088836988595295
135	0x3f908e2e1b598e55	0.016167374057103185
136	0x3fb4d08efb312ee1	0.08130735046978145
137	0x3fb43e57792924c2	0.07907625873589821
138	0x3fb8794c272987bd	0.09560085254773205
139	0x3fa1033e150a5d90	0.03322786337701722
140	0x3fb48450a029d1f6	0.08014396581877023
141	0x3fadcf9b9c9553f2	0.05822454725663552
142	0x3fb021bdd2676471	0.06301485430539501
143	0x3fac5edd06ae314a	0.055411250176890706
144	0x3fbb23971e31addb	0.10601181494865079
145	0x3fb253fb9402bf1f	0.07159397471945937
146	0x3fb8380051115f22	0.09460451106258153
147	0x3fb0d6e9bcbeb624	0.06577931268721976
148	0x3fb6eab54592fe43	0.0895188612803333
149	0x3fb69cda03d065f1	0.08833086579434003
150	0x3fbd67b727b93c62	0.11486382217229754
151	0x3fb93b21d7fd2668	0.09855853579679208
152	0x3fbc1e3281973efb	0.10983577407682425
153	0x3fbaf8ca36ba94dd	0.10535873256829427
154	0x3fba4f1d1d7c7301	0.10276967973591057
155	0x3fbcaa453b9e0927	0.11197312074185516
156	0x3fb3081e608d6a13	0.07434263093220066
157	0x3fb4a13b50f035f0	0.0805852005580261
158	0x3fb63b051c875f36	0.08683807322028944
159	0x3fa5f9d689d4dd6a	0.042921737980971056
160	0x3fb40ab6a8435444	0.07828847511275777
161	0x3fb3b2451b3baae4	0.0769389335143092
162	0x3fb7bc53b05acf13	0.09271739059004984
163	0x3fb0edb035aa32d6	0.06612683592011179
164	0x3facc766ae2f5c86	0.05620880962640577
165	0x3fa03c222315f5ac	0.03170878103535854
166	0x3fb68c1886753aaf	0.08807519228615023
167	0x3fb5c0edd9f0091d	0.08497511454337255
168	0x3f9a513ec3272185	0.025700550709900866
169	0x3fb93c0457cc9a56	0.09857203620468033
170	0x3facd0f77477d989	0.05628178879480845
171	0x3fa4d54030eb517f	0.040689474078734904
172	0x3fb0d81b8d969aab	0.06579754072900339
173	0x3fb1db583ba5ecd7	0.06975318390134376
174	0x3fb1bf96bd5112eb	0.06932966348638174
175	0x3face82e5c3bbf3e	0.05645890117545925
176	0x3faea4c9ff5682c5	0.05985099069517256
177	0x3fa3df47955f04d1	0.03881286333445078
178	0x3fb37703af2b16d2	0.07603476549692381
179	0x3fa14449e21e87ec	0.0337241257214059
180	0x3fb5435ec9b560c9	0.08305923866771815
181	0x3fac43bc8984c904	0.05520428827948545
182	0x3f9b6a84e792b4bd	0.026773525842760593
183	0x3fb459ba4f2bb1c3	0.07949413712385138
184	0x3fb6ddab4f212393	0.08931990320082965
185	0x3fad6c7815fa1b6a	0.05746817844651882
186	0x3fb39ff2db7c9a40	0.07665937288820945
187	0x3fb5ab1a8154a254	0.08464208276257895
188	0x3fac5edd06ae314a	0.055411250176890706
189	0x3fb33795e744059c	0.07506691833625329
190	0x3fb844a78ee2289c	0.09479758489956897
191	0x3fb23c3c20208a10	0.07123161110261145
192	0x3fae360d156d7c16	0.05900612722938818
193	0x3fb4feea795ef459	0.08201470816762092
194	0x3fb38bc63f462745	0.07635153813148772
195	0x3f9feaae10aef7b6	0.031168670433309585
196	0x3fa6918b0ec21960	0.044079156447923706
197	0x3fb46fcdeda20aeb	0.07983099986635593
198	0x3fafe80710ac2e44	0.06231710508845059
199	0x3fad6c7815fa1b6a	0.05746817844651882
200	0x3fb3f8770349a95e	0.07801002340571503
201	0x3fb70d484bcfd837	0.09004642344356815
202	0x3fa88d5e8152821e	0.047953561102307626
203	0x3fa0f03e8da02714	0.03308291891887741
204	0x3fad765b047bc813	0.057543606087975395
205	0x3fb26b5b52708cb7	0.07195063364683817
206	0x3fadb067a87161ea	0.05798648768604038
207	0x3fa8580f96792d56	0.04754685127098905
208	0x3fb242c6d46362b7	0.07133143124827766
209	0x3fb5bb418bae3864	0.08488855037850979
210	0x3fb65de55da613b5	0.08737023865076206
211	0x3fb3b2451b3baae4	0.0769389335143092
212	0x3fb3d67c62f2daa9	0.07749154487360478
213	0x3face5cb9c6ababf	0.056440699428426104
214	0x3fb1fe852397923b	0.07028991812655587
215	0x3fa3986e152132ff	0.038272323684031655
216	0x3fa38b7fca175419	0.03817366926129057
217	0x3fa10294bc658be7	0.03322281646503438
218	0x3fb5abbf5a1e5ec8	0.0846519083992191
219	0x3fa84ca074f1ba2e	0.047459615970059196
220	0x3fb17823f644a5ef	0.06823944818884063
221	0x3fb40f9eb4fba7dd	0.07836334150820741
222	0x3fb232b6824905cc	0.0710863178328715
223	0x3fb340dbf82c856d	0.07520842369969723
224	0x3fa6f5a8ff6e9b7a	0.04484298818652284
225	0x3fabbe8ff7fde633	0.05418825056308343
226	0x3fb08d51d75e0b31	0.06465636737815995
227	0x3fb1886a3e03ea5a	0.06848777784390717
228	0x3fb169ff34b3ae9d	0.0680236343065936
229	0x3fb40f9eb4fba7dd	0.07836334150820741
230	0x3fab077d1d9e4e10	0.05279150950005029
231	0x3fb69bb4d9878438	0.08831339178824826
232	0x3fb7733300fd3f41	0.09160155080939793
233	0x3fa4c3ac2f91397c	0.04055536347060504
234	0x3fb30491cef98be1	0.07428847601981615
235	0x3fa9fcfe392e4144	0.05075830886846913
236	0x3fb15c6d5a1630b4	0.06781657647497036
237	0x3fb4633ec87e450e	0.07963936228613397
238	0x3fa5da02d725c3d6	0.042678917658924995
239	0x3fb97281d258185f	0.09940348992685831
240	0x3fb1bdae7a020a46	0.06930056074819743
241	0x3fa4a13b50f035f0	0.04029260027901305
242	0x3fb29b76281ea211	0.07268465499385736
243	0x3fa8d201b9c050e0	0.04847722427817458
244	0x3fb9118d14c8b731	0.09792405850813847
245	0x3fb04b451c21b546	0.06364852845009236
246	0x3fb3eb867a15ae5b	0.07781258087714475
247	0x3fb66dcc33354e6b	0.08761287927819132
248	0x3faa3e64e29b3e80	0.051257279073635864
249	0x3faeae191f94a9fd	0.05992201338297674
250	0x3f95da02d725c3d6	0.021339458829462497
251	0x3fb391bf74597d0b	0.07644268599095853
252	0x3fb470b7de3228e2	0.07984494375901677
253	0x3fb206048de0f442	0.07040432418666945
254	0x3fb46f0800c4295c	0.0798192026015036
255	0x3fb01093efe658fc	0.06275295836380573

diag f8 [653]
0	0x400868700aa0adb1	3.0509949522290403
1	0x400a9d3e14006cb9	3.3267785608892066
2	0x400ee870927f31c2	3.8634959645334854
3	0x400dc2f93a1b7a86	3.7202019252429777
4	0x400a2930778f0519	3.2701119747658933
5	0x400d1547c16de199	3.63539076916295
6	0x4004cf19d85a095e	2.601123514411639
7	0x400e81a71e112d16	3.8133070324889884
8	0x400e1ffd6293158e	3.7656200123917136
9	0x400a6254b74b1808	3.298013145426925
10	0x400be28fea9a3a17	3.485626061278946
11	0x4003666adc5a2a05	2.4250085082069313
12	0x400c75d9576553d4	3.5575434520528493
13	0x40083c9d3d9343e0	3.0295967875067475
14	0x400c75d9576553d4	3.5575434520528493
15	0x4005d158c7e3478d	2.72722011720993
16	0x3ffc62c0597961cd	1.7741092200359276
17	0x400694cb66f4481b	2.822653583841214
18	0x4006b7856c7abbff	2.8396099543529085
19	0x400cc3ed1919d035	3.5956670723917576
20	0x400cc3ed1919d035	3.5956670723917576
21	0x4005770b2e0b9dd3	2.683126792649753
22	0x400286f59ad9d15c	2.3158981416437836
23	0x3ffabfdb4e8e5e32	1.6718400066946626
24	0x400895511dbf2f0e	3.0729086231202762
25	0x40033b8b67e0de9d	2.4040744891643286
26	0x400be28fea9a3a17	3.485626061278946
27	0x400e81a71e112d16	3.8133070324889884
28	0x4009876d05a8c14c	3.1911259119152984
29	0x400dc2f93a1b7a86	3.7202019252429777
30	0x4010a741ed9ff8c7	4.163337433709052
31	0x4008c34d3658895d	3.0953621145028323
32	0x4008c34d3658895d	3.0953621145028323
33	0x3ff72da918e5e6b8	1.4486475918369432
34	0x400d1547c16de199	3.63539076916295
35	0x400c75d9576553d4	3.5575434520528493
36	0x3ff953820844d300	1.5828876803399794
37	0x4010a741ed9ff8c7	4.163337433709052
38	0x4010a741ed9ff8c7	4.163337433709052
39	0x4003666adc5a2a05	2.4250085082069313
40	0x400694cb66f4481b	2.822653583841214
41	0x400ada087b03ca1a	3.3564614878207637
42	0x400326813118851d	2.393801101265707
43	0x400e1ffd6293158e	3.7656200123917136
44	0x400dc2f93a1b7a86	3.7202019252429777
45	0x400ee870927f31c2	3.8634959645334854
46	0x3ff65bc0fbb9591a	1.397400840088784
47	0x400b9cef43a4221a	3.4516282352890473
48	0x400868700aa0adb1	3.0509949522290403
49	0x40076fce2d6e1f20	2.929592471049446
50	0x4003bf83a8ecdf41	2.4685128400123237
51	0x400868700aa0adb1	3.0509949522290403
52	0x400be28fea9a3a17	3.485626061278946
53	0x4008c34d3658895d	3.0953621145028323
54	0x400954717da0471a	3.1662320913827786
55	0x40052116611631c0	2.64115596627218
56	0x400fc7b2e88a1b48	3.9725092093607692
57	0x400467655bde47fb	2.550486295433982
58	0x400be28fea9a3a17	3.485626061278946
59	0x4002d4da60f4a059	2.3539321493772545
60	0x3fff9372bfe28ad7	1.9734981055741423
61	0x40044e6653a91266	2.5382811103793754
62	0x400b59bdc457d7e2	3.418818983011975
63	0x3ffd7664c63fc752	1.8414046997172204
64	0x400326813118851d	2.393801101265707
65	0x40052116611631c0	2.64115596627218
66	0x400cc3ed1919d035	3.5956670723917576
67	0x4006ff0636109871	2.874523565656141
68	0x4006514566fc0046	2.7896831555990813
69	0x400811ccce67474b	3.0086914181964963
70	0x400d1547c16de199	3.63539076916295
71	0x4003d686d287735f	2.4797493407808555
72	0x3ff54d390ee7d311	1.3313532430885895
73	0x40013fd26f35a3a8	2.1561630905384455
74	0x4006514566fc0046	2.7896831555990813
75	0x4006306e17852564	2.7736474835880234
76	0x4005d158c7e3478d	2.72722011720993
77	0x40052116611631c0	2.64115596627218
78	0x3ff4278f4d9c79d0	1.259658148926622
79	0x4005b2bcbfafbbe7	2.712274072218395
80	0x40041d748e2ad9a2	2.514382467920954
81	0x400a6254b74b1808	3.298013145426925
82	0x400e81a71e112d16	3.8133070324889884
83	0x400a2930778f0519	3.2701119747658933
84	0x400dc2f93a1b7a86	3.7202019252429777
85	0x400a2930778f0519	3.2701119747658933
86	0x400ada087b03ca1a	3.3564614878207637
87	0x3ffe8f74af9733cd	1.910023389721789
88	0x400a6254b74b1808	3.298013145426925
89	0x4006daec3342c13c	2.856895828699775
90	0x3ffaf0f664f7a707	1.6838287300146833
91	0x4003edd9570ef094	2.4911371995386364
92	0x400922ce28d4b59f	3.1419947805322432
93	0x400f54e7b93720a4	3.9164576024960116
94	0x3ffd10f64b9fdaa7	1.8166411356047918
95	0x4009f1b7c3d4997f	3.2430262851004836
96	0x3ff05aa831d38ef8	1.0221330591529618
97	0x3fecdcf847109c48	0.9019738567338971
98	0x400cc3ed1919d035	3.5956670723917576
99	0x4008c34d3658895d	3.0953621145028323
100	0x400b18d282cd9297	3.387120267771319
101	0x3fe4b794fa6c3275	0.6474099055354389
102	0x4010a741ed9ff8c7	4.163337433709052
103	0x400811ccce67474b	3.0086914181964963
104	0x3ff6de448a6609e8	1.4292645841784353
105	0x4001d2be31c611cf	2.2279018295832667
106	0x4006ff0636109871	2.874523565656141
107	0x400b9cef43a4221a	3.4516282352890473
108	0x3fe7c5b5cbd2b380	0.7428845387381529
109	0x400cc3ed1919d035	3.5956670723917576
110	0x4005b2bcbfafbbe7	2.712274072218395
111	0x400261531ad2d3c6	2.297521791037499
112	0x4006306e17852564	2.7736474835880234
113	0x400b18d282cd9297	3.387120267771319
114	0x400b18d282cd9297	3.387120267771319
115	0x4003666adc5a2a05	2.4250085082069313
116	0x400694cb66f4481b	2.822653583841214
117	0x400435c181932d4a	2.5262479899444417
118	0x401020cb5ee91c13	4.032025797822842
119	0x4002fd303a977426	2.3736271455259326
120	0x4010f2017496ce94	4.236333677010084
121	0x40076fce2d6e1f20	2.929592471049446
122	0x400672b800052b8c	2.8060150147989074
123	0x400ada087b03ca1a	3.3564614878207637
124	0x400dc2f93a1b7a86	3.7202019252429777
125	0x3ff90d5d58573cb2	1.5657628489314388
126	0x4004057d38ea0077	2.502680248871964
127	0x401061bef867ba03	4.095455056506128
128	0x400080adcb72844e	2.0628314871142157
129	0x3ff4ba39a8dcfce4	1.2954651447506018
130	0x40052116611631c0	2.64115596627218
131	0x40016f57f1d74595	2.1793669599362127
132	0x400868700aa0adb1	3.0509949522290403
133	0x400868700aa0adb1	3.0509949522290403
134	0x400d6a30cb12c37c	3.676850878248329
135	0x400072e181152691	2.0560941776828447
136	0x3febb0bc8fd3661b	0.8653242882821276
137	0x400559eda3bb10cc	2.6689102927649397
138	0x400d1547c16de199	3.63539076916295
139	0x400d1547c16de199	3.63539076916295
140	0x400811ccce67474b	3.0086914181964963
141	0x3ffe0a76eecae6f0	1.8775548293910411
142	0x3fe1e66461bfb5d9	0.5593740376622761
143	0x3fe61bd4fde460bf	0.6908974608259298
144	0x4005b2bcbfafbbe7	2.712274072218395
145	0x400dc2f93a1b7a86	3.7202019252429777
146	0x4008c34d3658895d	3.0953621145028323
147	0x40049a7be67fce99	2.575431633735047
148	0x4008c34d3658895d	3.0953621145028323
149	0x3fe2b35edb34cfa0	0.5843958169339096
150	0x400080adcb72844e	2.0628314871142157
151	0x400868700aa0adb1	3.0509949522290403
152	0x3ffce95835662438	1.8069688878915837
153	0x400b18d282cd9297	3.387120267771319
154	0x4010a741ed9ff8c7	4.163337433709052
155	0x400be28fea9a3a17	3.485626061278946
156	0x4008f271ffd07e95	3.1183814988615475
157	0x4007e7f399a28b81	2.988257599137285
158	0x4009876d05a8c14c	3.1911259119152984
159	0x4004ea028c18dbea	2.6142626710020425
160	0x40039263b993215d	2.446479272654115
161	0x400e81a71e112d16	3.8133070324889884
162	0x4004ea028c18dbea	2.6142626710020425
163	0x400d6a30cb12c37c	3.676850878248329
164	0x400d1547c16de199	3.63539076916295
165	0x4008f271ffd07e95	3.1183814988615475
166	0x400a9d3e14006cb9	3.3267785608892066
167	0x400868700aa0adb1	3.0509949522290403
168	0x400ada087b03ca1a	3.3564614878207637
169	0x400d6a30cb12c37c	3.676850878248329
170	0x4001e3e8df69289e	2.2362840131728055
171	0x4008f271ffd07e95	3.1183814988615475
172	0x4006daec3342c13c	2.856895828699775
173	0x400ada087b03ca1a	3.3564614878207637
174	0x3ff305c80fb58079	1.1889114965088352
175	0x400480c109cb48cd	2.5628681912577123
176	0x3febb81c677b7f5f	0.866224481691443
177	0x4009bbd325407226	3.216711321858628
178	0x4005d158c7e3478d	2.72722011720993
179	0x40049a7be67fce99	2.575431633735047
180	0x3feeacabee61ed4a	0.9585780769261103
181	0x4001d2be31c611cf	2.2279018295832667
182	0x400811ccce67474b	3.0086914181964963
183	0x4006daec3342c13c	2.856895828699775
184	0x400b59bdc457d7e2	3.418818983011975
185	0x40024ed1d61c61e9	2.288486168614544
186	0x40050555af277298	2.6276048358834707
187	0x400c75d9576553d4	3.5575434520528493
188	0x4003d686d287735f	2.4797493407808555
189	0x3ffddf67fcd14f4f	1.8670425296486035
190	0x4008c34d3658895d	3.0953621145028323
191	0x40022a69f1a3ccfa	2.2707098844635967
192	0x3fff3256e02b9d23	1.9497898823409023
193	0x3ff716b8a32dc0ed	1.4430471777123401
194	0x400922ce28d4b59f	3.1419947805322432
195	0x400a2930778f0519	3.2701119747658933
196	0x4006306e17852564	2.7736474835880234
197	0x40029a19103237aa	2.3252431168866297
198	0x400559eda3bb10cc	2.6689102927649397
199	0x400796fdc73e2308	2.9487262311780604
200	0x4000e4c43add0390	2.1117024038980574
201	0x40076fce2d6e1f20	2.929592471049446
202	0x40076fce2d6e1f20	2.929592471049446
203	0x400895511dbf2f0e	3.0729086231202762
204	0x4006514566fc0046	2.7896831555990813
205	0x4009876d05a8c14c	3.1911259119152984
206	0x3fffac35b0240217	1.9795433884138498
207	0x400c75d9576553d4	3.5575434520528493
208	0x4006daec3342c13c	2.856895828699775
209	0x4007bf072feee94b	2.9682754273209517
210	0x400ee870927f31c2	3.8634959645334854
211	0x400868700aa0adb1	3.0509949522290403
212	0x400559eda3bb10cc	2.6689102927649397
213	0x40083c9d3d9343e0	3.0295967875067475
214	0x4004057d38ea0077	2.502680248871964
215	0x400a2930778f0519	3.2701119747658933
216	0x4005d158c7e3478d	2.72722011720993
217	0x400b59bdc457d7e2	3.418818983011975
218	0x400694cb66f4481b	2.822653583841214
219	0x400be28fea9a3a17	3.485626061278946
220	0x4009bbd325407226	3.216711321858628
221	0x400b9cef43a4221a	3.4516282352890473
222	0x3fee2e8d1ca0b7c3	0.9431825217377469
223	0x3ffaafad695b434c	1.6678899875152693
224	0x3ffb22f0d0e30826	1.6960304412500675
225	0x400480c109cb48cd	2.5628681912577123
226	0x4008f271ffd07e95	3.1183814988615475
227	0x400868700aa0adb1	3.0509949522290403
228	0x3fedac272f844de1	0.9272647789061318
229	0x400ada087b03ca1a	3.3564614878207637
230	0x400868700aa0adb1	3.0509949522290403
231	0x400c75d9576553d4	3.5575434520528493
232	0x400e1ffd6293158e	3.7656200123917136
233	0x40037c434912e7d8	2.4356752118010085
234	0x3ff5279b8e047904	1.322169832950352
235	0x40041d748e2ad9a2	2.514382467920954
236	0x4009bbd325407226	3.216711321858628
237	0x400922ce28d4b59f	3.1419947805322432
238	0x4008c34d3658895d	3.0953621145028323
239	0x400be28fea9a3a17	3.485626061278946
240	0x400922ce28d4b59f	3.1419947805322432
241	0x400be28fea9a3a17	3.485626061278946
242	0x3ff773bf380cf332	1.4657585324741373
243	0x4009876d05a8c14c	3.1911259119152984
244	0x3fe2a9a525d7676c	0.5832086314287444
245	0x400ee870927f31c2	3.8634959645334854
246	0x3fe39ee0ba87b399	0.613144268337794
247	0x400811ccce67474b	3.0086914181964963
248	0x40083c9d3d9343e0	3.0295967875067475
249	0x40039263b993215d	2.446479272654115
250	0x3fdf347d9a35ecde	0.48757877406724315
251	0x400057a400148ed8	2.0427932745240973
252	0x4005770b2e0b9dd3	2.683126792649753
253	0x400a2930778f0519	3.2701119747658933
254	0x400350d8c622c3ac	2.4144759635314212
255	0x3fe801118afebd47	0.7501304354426929

indices i4 [11151]
0	0x0000028c	652
1	0x0000028b	651
2	0x0000028a	650
3	0x00000289	649
4	0x00000288	648
5	0x00000287	647
6	0x00000286	646
7	0x00000285	645
8	0x00000284	644
9	0x00000283	643
10	0x00000282	642
11	0x00000281	641
12	0x00000280	640
13	0x0000027f	639
14	0x0000027e	638
15	0x0000027d	637
16	0x0000027c	636
17	0x0000027b	635
18	0x0000027a	634
19	0x00000279	633
20	0x00000278	632
21	0x00000277	631
22	0x00000276	630
23	0x00000275	629
24	0x00000274	628
25	0x00000273	627
26	0x00000272	626
27	0x00000271	625
28	0x00000270	624
29	0x0000026f	623
30	0x0000026e	622
31	0x0000026d	621
32	0x0000026c	620
33	0x0000026b	619
34	0x0000026a	618
35	0x00000269	617
36	0x00000268	616
37	0x00000267	615
38	0x00000266	614
39	0x00000265	613
40	0x00000264	612
41	0x00000263	611
42	0x00000262	610
43	0x00000261	609
44	0x00000260	608
45	0x0000025f	607
46	0x0000025e	606
47	0x0000025d	605
48	0x0000025c	604
49	0x0000025b	603
50	0x0000025a	602
51	0x00000259	601
52	0x00000258	600
53	0x00000257	599
54	0x00000256	598
55	0x00000255	597
56	0x00000254	596
57	0x00000253	595
58	0x00000252	594
59	0x00000251	593
60	0x00000250	592
61	0x0000024f	591
62	0x0000024e	590
63	0x0000024d	589
64	0x0000024c	588
65	0x0000024b	587
66	0x0000024a	586
67	0x00000249	585
68	0x00000248	584
69	0x00000247	583
70	0x00000246	582
71	0x00000245	581
72	0x00000244	580
73	0x00000243	579
74	0x00000242	578
75	0x00000241	577
76	0x00000240	576
77	0x0000023f	575
78	0x0000023e	574
79	0x0000023d	573
80	0x0000023c	572
81	0x0000023b	571
82	0x0000023a	570
83	0x00000239	569
84	0x00000238	568
85	0x00000237	567
86	0x00000236	566
87	0x00000235	565
88	0x00000234	564
89	0x00000233	563
90	0x00000232	562
91	0x00000231	561
92	0x00000230	560
93	0x0000022f	559
94	0x0000022e	558
95	0x0000022d	557
96	0x0000022c	556
97	0x0000022b	555
98	0x0000022a	554
99	0x00000229	553
100	0x00000228	552
101	0x00000227	551
102	0x00000226	550
103	0x00000225	549
104	0x00000224	548
105	0x00000223	547
106	0x00000222	546
107	0x00000221	545
108	0x00000220	544
109	0x0000021f	543
110	0x0000021e	542
111	0x0000021d	541
112	0x0000021c	540
113	0x0000021b	539
114	0x0000021a	538
115	0x00000219	537
116	0x00000218	536
117	0x00000217	535
118	0x00000216	534
119	0x00000215	533
120	0x00000214	532
121	0x00000213	531
122	0x00000212	530
123	0x00000211	529
124	0x00000210	528
125	0x0000020f	527
126	0x0000020e	526
127	0x0000020d	525
128	0x0000020c	524
129	0x0000020b	523
130	0x0000020a	522
131	0x00000209	521
132	0x00000208	520
133	0x00000207	519
134	0x00000206	518
135	0x00000205	517
136	0x00000204	516
137	0x00000203	515
138	0x00000202	514
139	0x00000201	513
140	0x00000200	512
141	0x000001ff	511
142	0x000001fe	510
143	0x000001fd	509
144	0x000001fc	508
145	0x000001fb	507
146	0x000001fa	506
147	0x000001f9	505
148	0x000001f8	504
149	0x000001f7	503
150	0x000001f6	502
151	0x000001f5	501
152	0x000001f4	500
153	0x000001f3	499
154	0x000001f2	498
155	0x000001f1	497
156	0x000001f0	496
157	0x000001ef	495
158	0x000001ee	494
159	0x000001ed	493
160	0x000001ec	492
161	0x000001eb	491
162	0x000001ea	490
163	0x000001e9	489
164	0x000001e8	488
165	0x000001e7	487
166	0x000001e6	486
167	0x000001e5	485
168	0x000001e4	484
169	0x000001e3	483
170	0x000001e2	482
171	0x000001e1	481
172	0x000001e0	480
173	0x000001df	479
174	0x000001de	478
175	0x000001dd	477
176	0x000001dc	476
177	0x000001db	475
178	0x000001da	474
179	0x000001d9	473
180	0x000001d8	472
181	0x000001d7	471
182	0x000001d6	470
183	0x000001d5	469
184	0x000001d4	468
185	0x000001d3	467
186	0x000001d2	466
187	0x000001d1	465
188	0x000001d0	464
189	0x000001cf	463
190	0x000001ce	462
191	0x000001cd	461
192	0x000001cc	460
193	0x000001cb	459
194	0x000001ca	458
195	0x000001c9	457
196	0x000001c8	456
197	0x000001c7	455
198	0x000001c6	454
199	0x000001c5	453
200	0x000001c4	452
201	0x000001c3	451
202	0x000001c2	450
203	0x000001c1	449
204	0x000001c0	448
205	0x000001bf	447
206	0x000001be	446
207	0x000001bd	445
208	0x000001bc	444
209	0x000001bb	443
210	0x000001ba	442
211	0x000001b9	441
212	0x000001b8	440
213	0x000001b7	439
214	0x000001b6	438
215	0x000001b5	437
216	0x000001b4	436
217	0x000001b3	435
218	0x000001b2	434
219	0x000001b1	433
220	0x000001b0	432
221	0x000001af	431
222	0x000001ae	430
223	0x000001ad	429
224	0x000001ac	428
225	0x000001ab	427
226	0x000001aa	426
227	0x000001a9	425
228	0x000001a8	424
229	0x000001a7	423
230	0x000001a6	422
231	0x000001a5	421
232	0x000001a4	420
233	0x000001a3	419
234	0x000001a2	418
235	0x000001a1	417
236	0x000001a0	416
237	0x0000019f	415
238	0x0000019e	414
239	0x0000019d	413
240	0x0000019c	412
241	0x0000019b	411
242	0x0000019a	410
243	0x00000199	409
244	0x00000198	408
245	0x00000197	407
246	0x00000196	406
247	0x00000195	405
248	0x00000194	404
249	0x00000193	403
250	0x00000192	402
251	0x00000191	401
252	0x00000190	400
253	0x0000018f	399
254	0x0000018e	398
255	0x0000018d	397

indptr i4 [113]
0	0x00000000	0
1	0x0000028b	651
2	0x000002e8	744
3	0x00000437	1079
4	0x00000549	1353
5	0x00000658	1624
6	0x0000073a	1850
7	0x0000083a	2106
8	0x00000924	2340
9	0x00000a10	2576
10	0x00000abe	2750
11	0x00000b7c	2940
12	0x00000c1e	3102
13	0x00000cd4	3284
14	0x00000db2	3506
15	0x00000e4b	3659
16	0x00000ef5	3829
17	0x00000f93	3987
18	0x00001041	4161
19	0x000010c6	4294
20	0x00001142	4418
21	0x000011af	4527
22	0x00001204	4612
23	0x000012cc	4812
24	0x0000132d	4909
25	0x000013aa	5034
26	0x00001422	5154
27	0x0000149e	5278
28	0x00001550	5456
29	0x0000159e	5534
30	0x00001637	5687
31	0x000016ba	5818
32	0x0000171e	5918
33	0x000017c6	6086
34	0x000017fe	6142
35	0x00001866	6246
36	0x000018c7	6343
37	0x00001910	6416
38	0x00001940	6464
39	0x00001994	6548
40	0x000019ce	6606
41	0x00001a42	6722
42	0x00001aed	6893
43	0x00001b4e	6990
44	0x00001ba0	7072
45	0x00001c38	7224
46	0x00001c95	7317
47	0x00001d42	7490
48	0x00001d8d	7565
49	0x00001dc1	7617
50	0x00001e11	7697
51	0x00001e6a	7786
52	0x00001eb8	7864
53	0x00001f3e	7998
54	0x00001fb6	8118
55	0x00001ffa	8186
56	0x00002050	8272
57	0x00002089	8329
58	0x0000210b	8459
59	0x00002136	8502
60	0x00002172	8562
61	0x000021ac	8620
62	0x000021e9	8681
63	0x00002222	8738
64	0x0000226d	8813
65	0x00002288	8840
66	0x000022ef	8943
67	0x00002358	9048
68	0x00002370	9072
69	0x000023e7	9191
70	0x00002436	9270
71	0x0000245d	9309
72	0x000024a8	9384
73	0x000024e0	9440
74	0x000024fb	9467
75	0x00002532	9522
76	0x00002564	9572
77	0x000025ae	9646
78	0x000025c3	9667
79	0x00002620	9760
80	0x00002656	9814
81	0x000026a0	9888
82	0x000026e9	9961
83	0x00002752	10066
84	0x00002786	10118
85	0x000027a7	10151
86	0x000027be	10174
87	0x000027f7	10231
88	0x000027ff	10239
89	0x0000281f	10271
90	0x0000284d	10317
91	0x0000287d	10365
92	0x000028b4	10420
93	0x000028c5	10437
94	0x000028ed	10477
95	0x0000290c	10508
96	0x0000294d	10573
97	0x00002975	10613
98	0x00002996	10646
99	0x000029ee	10734
100	0x000029fb	10747
101	0x00002a0a	10762
102	0x00002a1a	10778
103	0x00002a53	10835
104	0x00002a6a	10858
105	0x00002a8d	10893
106	0x00002abf	10943
107	0x00002aff	11007
108	0x00002b19	11033
109	0x00002b3f	11071
110	0x00002b53	11091
111	0x00002b78	11128
112	0x00002b8f	11151
