output/model_2024-11-12/topic_embeddings.safetensors (safetensors, 172120 bytes, 1 tensors)

topic_embeddings f4 [112, 384]
-0.005466223 0.017961739 9.7091186e-05 -0.03379819 -0.0014276383 -0.005047611 0.061129615 -0.0059348573
0.01856985 0.0030677798 0.002582379 -0.024902368 0.017406454 -0.003936567 -0.03613072 0.014486877
-0.021727463 -0.016523898 -0.030540934 -0.024433888 -0.008543266 0.011117854 0.027612526 0.010613437
-0.023273986 -0.019828402 -0.013867555 0.01198373 -0.014279068 -0.004586145 0.0048378645 0.018489309
-0.0013574027 -0.0018615309 -0.008646641 0.012133522 0.014783612 -0.008637213 -0.008759692 -0.011690765
0.005633349 -0.049888115 -0.0033017863 -0.0037153186 0.0043522785 0.020148618 -0.020039681 0.016885439
0.0022106082 -0.016409177 -0.028550915 -0.022364331 0.023794366 -0.025197731 -0.008340199 -0.027825993
-0.016259976 0.011648497 0.029589856 0.017071484 -0.001638367 0.015218537 -0.011168912 -0.015501069
0.015401132 -0.032345355 -0.012742964 -0.002442047 -0.022085177 0.01331756 0.0085294 -0.004737255
-0.0005990817 0.030473761 -0.020731384 0.007438707 0.011557503 -0.02145797 0.00716576 -0.0010825581
0.0010361875 -0.00434537 0.00057836046 -0.015195534 0.015920274 -0.024263795 -0.003924347 -0.012549693
0.0052187517 0.012559682 0.021683827 0.02656885 0.04453801 0.0028462568 -0.01390828 -0.01740118
-0.008474604 -0.0070979106 -0.091142714 0.07470398 0.004646039 0.013051482 0.019425765 0.031779256
0.0011859215 -0.0019016071 -0.004934365 0.036482416 -0.011330361 -0.030542117 -0.039012425 -0.022139832
-0.0129538765 -0.031699907 0.026844323 -0.025101548 0.003944846 -0.017195543 0.0013410728 -0.032025106
-0.020108467 0.0017926722 -0.03195392 0.016462026 -0.00032266122 -0.06762223 0.00050322694 2.834581e-33
0.012992525 0.036408707 0.0022907383 0.0053149895 -0.011588412 0.01101231 -0.044013605 0.01532017
-0.0073221237 -0.022083698 0.004281834 -0.016218701 -0.011394034 -0.00659433 -0.0125810765 0.00093543966
0.006964058 0.0061809523 -0.004344997 -0.011750451 -0.009090504 0.024603436 0.01937141 0.023284346
0.005151171 0.012762615 0.031938802 -0.026118884 0.008992962 0.03576076 0.013919363 0.012384913
-0.01781142 -0.025146494 -0.00961263 -0.019776179 0.018682236 -0.0054612975 -0.039339487 -0.007748553
0.012594671 0.010624335 -0.013358735 -0.006330185 0.0028117842 0.026624225 0.018055419 0.011272883
0.013731097 -0.002653008 0.0017370961 0.027460987 -0.019064628 -0.010957215 -0.0023345584 -0.012925945
-0.022650382 0.019073417 -0.0013432214 0.0043041385 0.020245815 0.009062718 -0.008507903 -0.011672909
-0.028603647 -0.06822048 0.0005020024 -0.00066982314 -0.0027273938 0.0052584256 -0.007947978 0.010708188
0.043870147 0.024836754 -0.051486056 -0.01279065 -0.0070283683 0.0039104284 0.02557769 -0.008931886
0.0071770013 0.0035685329 0.0088864565 -0.031276044 0.004084883 0.008806187 0.006822637 -0.03729146
0.012518341 0.0017888485 -0.044860426 0.0032342875 0.015309617 -0.0006676296 -0.031702902 -4.25274e-33
-0.00028483832 0.006824949 -0.017984625 0.03535444 0.014307276 -0.00013746147 0.0141171375 0.05441631
0.015270244 0.038754385 0.009556591 -0.024828717 0.03313797 -0.010873846 0.039334137 -0.029351419
0.050925583 -0.0013437422 -0.060453057 0.0018761483 -0.03321039 0.017097503 -0.007849641 0.033884283
-0.027842145 0.007517624 0.060722668 0.005692347 -0.013317629 -0.0066729086 0.025826769 -0.0002020072
00000000: 011e b3bb 7f24 933c 6f9d cb38 f96f 0abd
00000010: 981f bbba 6e66 a5bb 0c63 7a3d 3179 c2bb
00000020: cc1f 983c ce0c 493b 213d 293b 0d00 ccbc
00000030: fb97 8e3c 51fe 80bb cefd 13bd 5e5a 6d3c
00000040: cbfd b1bc 205d 87bc fb30 fabc 9429 c8bc
00000050: 0ef9 0bbc a927 363c aa33 e23c fbe3 2d3c
00000060: 16a9 bebc 2c6f a2bc be34 63bc 6857 443c
00000070: c1f2 69bc 5f47 96bb f386 9e3b e476 973c
00000080: e0ea b1ba 9dfe f3ba a4aa 0dbc aecb 463c
00000090: f736 723c 1983 0dbc d084 0fbc 9f8a 3fbc
000000a0: f597 b83b 7b57 4cbd c862 58bb b47c 73bb
000000b0: 8f9d 8e3b b70e a53c 422a a4bc 5553 8a3c
000000c0: dadf 103b 8a6c 86bc 9ce3 e9bc 6735 b7bc
000000d0: 67ec c23c 796b cebc 54a5 08bc 56f3 e3bc
000000e0: a433 85bc 56d9 3e3c 6d66 f23c 7fd9 8b3c
000000f0: 79be d6ba 2c57 793c d0fd 36bc 32f8 7dbc
00000100: 0855 7c3c 907c 04bd ddc7 50bc c00a 20bb
00000110: f9eb b4bc e531 5a3c e6be 0b3c fa3a 9bbb
00000120: b10b 1dba 1ca4 f93c ddd4 a9bc 66c0 f33b
00000130: ae5b 3d3c a0c8 afbc c0ce ea3b 9fe4 8dba
00000140: afd0 873a 9b63 8ebb 1d9d 173a b0f6 78bc
00000150: 3c6b 823c dec4 c6bc cf97 80bb 3a9d 4dbc
00000160: 1002 ab3b 20c7 4d3c 48a2 b13c eba6 d93c
00000170: 7d6d 363d 4488 3a3b 8edf 63bc eb8c 8ebc
00000180: 11d9 0abc 9795 e8bb 08a9 babd 66fe 983d
00000190: cd3d 983b e2d5 553c c822 9f3c f72a 023d
000001a0: ec70 9b3a 593f f9ba 74b0 a1bb 966e 153d
000001b0: faa2 39bc 7633 fabc 7ecb 1fbd 985e b5bc
000001c0: 7f3c 54bc c3d7 01bd a0e8 db3c c3a1 cdbc
000001d0: c443 813b abdd 8cbc f0c6 af3a c22c 03bd
000001e0: 83ba a4bc 19f8 ea3a 1de2 02bd 5fdb 863c
000001f0: db2a a9b9 867d 8abd fdea 033a df7c 6b09
00000200: 99de 543c 4c21 153d 3620 163b 5d29 ae3b
00000210: 53dd 3dbc fa6c 343c 9c47 34bd 7301 7b3c
00000220: 6dee efbb dfe8 b4bc a04e 8c3b 15dd 84bc
00000230: 0bae 3abc 4015 d8bb dc20 4ebc 4b38 753a
00000240: c132 e43b 9689 ca3b 7a60 8ebb f784 40bc
00000250: 56f0 14bc 258d c93c cbb0 9e3c d0be be3c
00000260: 27cb a83b 4a1a 513c 43d2 023d 45f7 d5bc
00000270: 3757 133c e079 123d 0a0e 643c 17ea 4a3c
00000280: 41e9 91bc 0500 cebc 4b7e 1dbc a701 a2bc
00000290: 7d0b 993c aff4 b2bb 7122 21bd 93e7 fdbb
000002a0: e159 4e3c b111 2e3c 98de 5abc 716d cfbb
000002b0: e945 383b 0c1b da3c f5e8 933c e6b1 383c
000002c0: 65f8 603c 17de 2dbb 46af e33a ddf5 e03c
000002d0: 6c2d 9cbc e485 33bc 64ff 18bb 58c7 53bc
000002e0: 4b8d b9bc db3f 9c3c 080f b0ba bb09 8d3b
000002f0: 8dda a53c cb7b 143c bb64 0bbc bb3f 3fbc
00000300: 3252 eabc 2eb7 8bbd d098 033a 1297 2fba
00000310: 13be 32bb df4e ac3b 3c38 02bc 6571 2f3c
00000320: 2fb1 333d 7376 cb3c 0be3 52bd e08f 51bc
00000330: 3a4e e6bb 0d23 803b 4e88 d13c 0c57 12bc
00000340: 0d2d eb3b 0cde 693b 8098 113c 4f1b 00bd
00000350: 7bda 853b d347 103c 6d90 df3b eebe 18bd
00000360: ba19 4d3c cc77 ea3a 91bf 37bd 57f6 533b
00000370: 30d5 7a3c dd03 2fba e7da 01bd e3a6 b089
00000380: 5a56 95b9 d2a3 df3b 7e54 93bc d1cf 103d
00000390: 1169 6a3c 8823 10b9 914b 673c a3e3 5e3d
000003a0: 0c30 7a3c ebbc 1e3d 3f93 1c3c 9865 cbbc
000003b0: aebb 073d 3728 32bc d51c 213d 6372 f0bc
000003c0: 5897 503d 8220 b0ba a09d 77bd 17e9 f53a
000003d0: 9e07 08bd 1010 8c3c c89b 00bc 3fca 0a3d
000003e0: 3615 e4bc 6756 f63b 55b8 783d de86 ba3b
000003f0: 2f32 5abc 6aa8 dabb a992 d33c e5d1 53b9
